kws_dscnn_False.tflite (tflite, 569080 bytes, 11 tensors)

unknown_17 f4 [8]
000000 56 46 75 bc 5e e6 27 3d d2 67 7c 3c a0 91 a8 3b
       -0.014970383 0.04099118 0.015405612 0.005144313
000010 7d e4 94 bc 2f 8b 25 bd d2 a4 c2 bb a2 d3 9d 3c
       -0.018175358 -0.04041594 -0.0059400583 0.019265953

sequential_2/batch_normalization_3/FusedBatchNormV3;StatefulPartitionedCall/sequential_2/batch_normalization_3/FusedBatchNormV3 f4 [256]
000000 c8 e9 46 3e 9f 8a 1c be 20 6a 7c be 88 46 b2 bd
       0.19425118 -0.15287255 -0.24649858 -0.08704859
000010 e0 26 65 be 84 5d 6b 3e 67 4a 61 3e 75 64 83 be
       -0.22378111 0.22984892 0.22001038 -0.2566258
000020 8e dc a3 3e 38 bf f7 3c 45 34 b0 3d b2 51 8e be
       0.32004207 0.030242547 0.086037196 -0.27796704
000030 32 f1 81 3e c8 26 b5 be f0 4d 2e be 6a b0 95 3d
       0.2537933 -0.3538115 -0.17021918 0.07309039
000040 26 62 b9 be e4 07 f2 bd f0 ae 24 be ce 05 2d 3d
       -0.36207694 -0.11817911 -0.16082358 0.042241864
000050 6a bf b3 3e 49 56 0c 3e 00 80 9e b7 a8 50 78 3e
       0.35106975 0.1370479 -1.8894672e-05 0.24249518
000060 dc bc 70 3e c4 94 2a bd 46 71 d1 bd c3 05 86 be
       0.23509544 -0.04164578 -0.10226683 -0.2617627
000070 81 75 53 3e 8d 50 90 bd 48 2e 6f bd 2d f8 ff 3e
       0.20650293 -0.07046614 -0.058393747 0.4999403
000080 a7 6d 47 be 15 5e 85 3e ae a2 28 3e e6 75 16 3e
       -0.19475423 0.2604834 0.16468307 0.14693412
000090 4c 65 b3 be c5 98 b2 3d c3 d4 62 3e 10 00 43 be
       -0.3503822 0.08720545 0.22151475 -0.19042993
0000a0 fc 69 4f 3d 50 75 a4 3e f0 95 c5 3c 76 1f 67 be
       0.050638184 0.32120752 0.024119347 -0.22570595
0000b0 67 11 01 3e 6c c3 0a be ef 12 db 3d 06 a6 2a 3e
       0.12604295 -0.1355111 0.10696971 0.16664895
0000c0 2e ae 82 3e 92 ad 11 3f e0 74 20 3e 63 ae a9 3d
       0.25523514 0.5690547 0.15669584 0.08285215
0000d0 c1 c6 60 be 96 b4 e6 bd d8 03 1d 3c 4f da 5a 3e
       -0.21950819 -0.11264913 0.009583436 0.2137234
0000e0 7b 7f 18 3e ea 83 9f be 30 7b 31 bc f3 cf 10 be
       0.1489238 -0.3115533 -0.010832593 -0.14141826
0000f0 54 c2 8b be 72 d1 d7 be 3a bf 7f be b0 f2 32 bd
       -0.27296698 -0.42151982 -0.24975291 -0.043688476
000100 fe 69 82 be 36 4e 86 be b4 b9 4c bd ed f7 39 be
       -0.2547149 -0.26231545 -0.049981788 -0.18160982
000110 99 d3 1a be 43 14 fc bd bc 65 75 3d 7f 48 f8 3d
       -0.1511978 -0.12308552 0.059911475 0.121232025
000120 5d da 95 3d 13 10 9a 3e d1 dc 13 be 70 9e 50 3d
       0.0731704 0.3009039 -0.14439704 0.050932348
000130 58 cb 93 be 90 26 4e bd 50 15 a1 bd fe 68 dc 3e
       -0.28866076 -0.050329745 -0.07865393 0.43048853
000140 e7 d4 73 3e 3e db b2 be b2 2d 81 3e d7 b8 07 3e
       0.23811685 -0.34932894 0.25230175 0.13254105
000150 2a 1a 8a be 6f f0 40 be 2e 70 4e be aa 6a 88 3c
       -0.26973087 -0.18841718 -0.2015998 0.016652424
000160 40 71 64 3e fb 42 88 be d6 3f cc 3e 19 70 0c 3e
       0.22308826 -0.26613602 0.39892453 0.13714637
000170 aa 45 6c bd 38 24 b4 3c c1 c6 93 3e d5 f4 74 be
       -0.057683624 0.021989927 0.28862575 -0.23921521
000180 5d 6e 8a bd da d5 1e be 2d 4b 45 3e 7c c9 c9 bd
       -0.067593314 -0.15511265 0.19266959 -0.09852883
000190 ce c8 2e be 8a 5a 87 3e 56 24 f1 bd c4 05 a1 3e
       -0.17068788 0.26436263 -0.11774509 0.3144971
0001a0 a0 3d bd 3b 77 2c 8c 3e d4 5a 6d 3e cb cf 18 be
       0.0057751685 0.27377674 0.2317918 -0.14923017
0001b0 c2 c6 d0 3d c8 46 a9 bd 46 63 a5 3e 2e cd 32 3d
       0.1019416 -0.082654536 0.32302302 0.043652706
0001c0 42 65 01 3e 47 99 20 3e a8 5f f0 3d 5c 6a 07 3e
       0.12636283 0.1568347 0.11736995 0.13224167
0001d0 03 46 e3 3d 50 0e 45 be 31 f5 99 3e 7b 13 24 3e
       0.11097338 -0.19243741 0.3006988 0.16023056
0001e0 e2 c1 1f bd 37 35 67 3e c6 df e9 3d a7 4c b9 3e
       -0.03900326 0.22578894 0.114196345 0.36191294
0001f0 90 d2 0c 3c 25 14 1b be cc 71 1c be b6 30 67 be
       0.008595124 -0.15144403 -0.15277785 -0.22577175
000200 c0 20 50 3e db 36 db 3d 4e 7b c8 3d ee c8 01 3e
       0.20324993 0.10703822 0.097891435 0.12674305
000210 2c 69 3f be 22 22 9b be 29 99 6c be 18 b0 2e 3e
       -0.18692464 -0.3029948 -0.23105301 0.17059362
000220 14 cf 5c 3d 40 9a eb bc 34 27 4f 3e fa af 83 be
       0.053908423 -0.028760076 0.20229799 -0.25720197
000230 26 5c 14 be 8a 1c a8 be 10 34 ab be 94 29 ab be
       -0.14488277 -0.32834274 -0.33438158 -0.3343016
000240 4e b1 4c be 67 7a 42 be 43 b2 ba 3e 6b 58 92 be
       -0.19989511 -0.18992005 0.36464128 -0.28583083
000250 12 ea a4 be 72 f8 7d 3d 66 c3 b5 bd 74 af 3e 3e
       -0.3220983 0.062004514 -0.0887516 0.18621618
000260 b1 0b 45 be 68 1b 64 be 7e 2c ac 3e bb ca be 3d
       -0.19242741 -0.2227608 0.33627695 0.093160115
000270 f8 1d 2d 3c ec ba 7f 3e c2 b7 f2 3e e2 60 8e be
       0.010566227 0.24973649 0.4740582 -0.2780829
000280 09 b8 0b be d5 9b df bd ff 09 96 be a1 14 6a be
       -0.13644423 -0.109183945 -0.293045 -0.22859432
000290 9b 5b 90 3e f4 f7 39 be 5a 1b 34 3d ba da 2a be
       0.2819489 -0.18160993 0.043971397 -0.16685
0002a0 8a 79 34 be 19 05 77 be c5 2f a4 3e 97 55 6b be
       -0.17624488 -0.24123038 0.32067695 -0.22981869
0002b0 ae 1d e6 be e8 f5 0e 3e 5b 2c 1f 3e de ad e3 3d
       -0.4494452 0.13960993 0.15544264 0.11117147
0002c0 a4 af 59 bd 14 6a 6b bd 93 5c ac be ef d7 81 be
       -0.05314602 -0.05747421 -0.3366438 -0.25360057
0002d0 6c 15 36 be 90 4a 3a be bb 3d 23 3e 6d 50 88 3e
       -0.1778161 -0.18192506 0.15941517 0.2662386
0002e0 15 98 ed 3d 81 04 81 3e ec d6 d3 be f8 57 8d be
       0.11601273 0.2519875 -0.4137491 -0.27606177
0002f0 aa 4a 89 be 60 49 b7 be 9c 67 27 3e a2 a1 a5 be
       -0.26814777 -0.35798168 0.16348118 -0.3234988
000300 d3 c0 b2 3e 98 b3 1b bd b5 ec 42 be 50 ac ed 3c
       0.34912738 -0.03801307 -0.19035609 0.029012829
000310 2d 70 98 3d aa be 00 3f e6 4e a8 bd 08 cf 22 3d
       0.07443271 0.5029093 -0.08218174 0.03974822
000320 b8 32 66 3e ac a5 3c 3e 1b f2 80 be 8b 4c c4 3e
       0.22480285 0.18422574 -0.25184712 0.38339648
000330 5a 74 49 3e 36 de fa 3e 01 b2 00 3e 23 5d 63 be
       0.19673291 0.48997658 0.12567903 -0.22203498
000340 e4 aa 49 3e 33 1e 88 be 50 d9 8e be 15 95 70 be
       0.19694096 -0.2658554 -0.2790017 -0.2349437
000350 ba 41 b5 be c8 f2 81 3e 76 c6 6b be f7 ac 12 3e
       -0.35401708 0.2538054 -0.23024926 0.14323793
000360 0c 8d 09 3e a0 08 11 3e e3 1f af 3d e6 cb 9b 3c
       0.13432711 0.14163446 0.08551004 0.019018125
000370 80 a1 86 3a e8 fa fc bd f2 7f a5 bd 9e fd 56 be
       0.001027152 -0.12352544 -0.08081044 -0.20995185
000380 95 aa 67 be a7 f3 4d be 5a 3a 8a be 02 0a a5 be
       -0.22623666 -0.20112477 -0.26997644 -0.32234198
000390 46 18 6b be d2 e7 39 3e d2 43 83 3e 75 a5 6c 3e
       -0.22958478 0.18154839 0.2563768 0.23109992
0003a0 a0 29 aa bc 0e cf 33 3e 85 d7 79 be 84 50 82 be
       -0.020771801 0.17559454 -0.2439862 -0.25452054
0003b0 1c 5f 0f 3e 79 8a 8b 3d 02 9b c2 bd f1 cf 95 be
       0.14001125 0.06813521 -0.09502222 -0.2926021
0003c0 d0 f6 ba 3e 17 20 7c be 55 3e 2f be da c1 ba 3e
       0.36516428 -0.24621616 -0.17113622 0.36476022
0003d0 88 5c f4 bb b1 dc ca 3e d7 a9 72 3e eb bb a8 3e
       -0.0074573196 0.396215 0.23697601 0.3295587
0003e0 26 cf 6e be c6 3c b4 bd ba 82 39 3d 26 f5 23 be
       -0.23321208 -0.08800654 0.045290686 -0.16011485
0003f0 5d ed a5 3e a5 d8 1a 3e 9f 24 a4 be b4 73 27 3e
       0.32407656 0.15121706 -0.3205919 0.16352731

sequential_2/batch_normalization_5/FusedBatchNormV3;StatefulPartitionedCall/sequential_2/batch_normalization_5/FusedBatchNormV3 f4 [256]
000000 7e 5a 7a bf ed 97 e5 bf 21 d2 d6 be 72 e8 c8 be
       -0.9779433 -1.7936989 -0.4195719 -0.39239842
000010 b0 56 75 bf 8f 9e 85 bf b0 98 b5 bf 7a 75 8d bf
       -0.958354 -1.0439013 -1.4187222 -1.1051476
000020 0b 5c a4 bf 85 e7 f0 be 08 ff 27 bf a0 2f 53 bf
       -1.2840589 -0.47051635 -0.6562352 -0.82494545
000030 48 39 25 bf fa bb 75 be 07 a1 24 be 50 4c 48 be
       -0.6454053 -0.23997489 -0.16077052 -0.19560361
000040 98 68 6b bf 38 f9 8a bf 3c f1 9c bf c8 98 f1 3c
       -0.9195647 -1.0857306 -1.2261119 0.029491797
000050 02 7c d6 bf 2b 3c c9 bf d0 04 da bf 56 61 40 bf
       -1.6756594 -1.5721487 -1.7032719 -0.7514852
000060 6c 2c cb 3f 8c c9 95 bf bf 32 35 bf 36 04 83 bf
       1.5872931 -1.1702132 -0.7078056 -1.023566
000070 a0 2c ac bf 08 06 cb bf d0 73 a4 be cd bc 05 bf
       -1.3451118 -1.5861216 -0.32119608 -0.5224121
000080 d1 f2 7d bf eb e8 f8 be ea 0f 8c bf 9c 79 cc be
       -0.99198633 -0.48615202 -1.0942357 -0.3993653
000090 15 b0 76 bf 73 42 1c bf 52 88 d4 3c cf d7 29 bf
       -0.9636243 -0.61038893 0.025943909 -0.6634492
0000a0 11 39 40 bf eb e9 4a bf 26 86 bb bf 31 d6 94 bf
       -0.75087076 -0.7926318 -1.4650314 -1.1627866
0000b0 bc 8d 55 bf 5b 78 96 bf 7a 73 4c bf 95 b6 25 3f
       -0.83419394 -1.175548 -0.79863703 0.64731723
0000c0 a3 21 bb bf fe 05 83 bf 71 16 c1 bf 93 50 98 bf
       -1.461964 -1.0236204 -1.5084974 -1.1899589
0000d0 66 0c e5 bf 12 aa a4 bf 5a 98 bf bf ab 06 7c bf
       -1.7894409 -1.2864401 -1.4968369 -0.98447675
0000e0 ad b6 33 bf c5 f3 7d bf f7 d5 ed bf 94 dd 93 bf
       -0.70200616 -0.9920009 -1.8580922 -1.1551995
0000f0 5a 1e 96 be e4 44 d9 bf d0 eb f9 be 84 f2 8d bf
       -0.2932003 -1.6974149 -0.48812723 -1.1089635
000100 2f 8b 95 bf 83 3a f5 be b1 aa 5d bf 45 14 54 bf
       -1.16831 -0.47896203 -0.8658858 -0.8284343
000110 08 50 37 bf 38 e9 b0 be 2e d1 aa bf e0 cc 69 bf
       -0.71606493 -0.34552932 -1.3345087 -0.9132824
000120 49 04 53 bf 8c 4b a1 bf 3b 40 c5 bf 8a 88 a7 bf
       -0.82428414 -1.260118 -1.5410227 -1.3088543
000130 d9 ed 6c bf be de b6 bf 0f 81 74 bf 1a 03 94 bf
       -0.92550427 -1.4286726 -0.9550943 -1.1563447
000140 33 a1 c7 be 68 ad e4 be 15 3d 87 bf e9 78 13 bf
       -0.38990173 -0.44663548 -1.0565516 -0.5760637
000150 5a 18 ce bf fc 6b 64 bf 62 07 8e bf 6c 4a 5d bf
       -1.6101182 -0.8922727 -1.1096003 -0.86441684
000160 06 4b fe be 95 c2 93 bf 58 1b 7f bf 82 bb 83 bf
       -0.49666613 -1.1543757 -0.996511 -1.0291598
000170 b9 7e 76 bf 82 cf 83 bf 74 7f f5 bc 29 d7 6f bf
       -0.96287113 -1.0297701 -0.029968001 -0.93687683
000180 1c 97 6a be 74 a9 b7 bf 9c 31 88 bf 33 89 93 bf
       -0.22909206 -1.4348588 -1.064014 -1.1526245
000190 e2 bb 90 bf 21 e5 fe bf fd 57 e9 bf 2b a5 e1 bf
       -1.1307337 -1.9913675 -1.8229977 -1.762853
0001a0 60 a9 66 bf 52 e6 b9 bf 45 9e 8b bf 49 60 68 bf
       -0.90102196 -1.4523413 -1.0907675 -0.9077192
0001b0 50 37 30 bf 7f 66 66 bf 0c e6 65 bf 2c d9 a0 bf
       -0.688344 -0.90000147 -0.8980415 -1.2566276
0001c0 bf 4f ef be 81 57 a5 bf 0d 28 a3 bf 5f b2 9e bf
       -0.4674053 -1.2917329 -1.2746598 -1.2398185
0001d0 3d 58 45 bf 1f 97 b4 bf 06 6d 2d be d8 76 a4 bf
       -0.77087766 -1.4108618 -0.1693612 -1.2848768
0001e0 34 40 2f bf 10 34 07 bf 7a 8c aa bf a9 28 86 be
       -0.6845734 -0.52813816 -1.332412 -0.26202896
0001f0 4d c9 68 bf fa 6d 78 bf 37 f9 95 bf 69 69 c3 bf
       -0.9093216 -0.9704281 -1.1716679 -1.5266544
000200 d0 b0 88 bf 4f 78 dd bf 10 b3 15 bf b5 79 ba be
       -1.0678959 -1.730234 -0.5847635 -0.3642098
000210 87 5e 54 3e 35 bd 4a bf c6 4c 42 bf 21 14 8e bf
       0.20739184 -0.79194957 -0.75898397 -1.1099893
000220 ce 3f 2d bf 02 6a b0 bf 47 24 b5 bf c8 56 29 40
       -0.67675483 -1.3782351 -1.4151696 2.6459217
000230 62 b0 c3 bf 5d ad 44 bf 03 63 89 be f1 0d 98 bf
       -1.5288203 -0.7682703 -0.26833352 -1.1879255
000240 ac 23 92 bf 9c cb 4d bf f7 d8 b5 be 2e 76 30 bf
       -1.1417136 -0.8038881 -0.35517094 -0.6893033
000250 b0 df 46 be 62 7e ef be 83 31 69 bf 86 56 03 bd
       -0.19421268 -0.4677611 -0.91091174 -0.032064937
000260 92 ad 38 bf 0f c0 21 bf 5c 42 0c bf 65 a6 07 bf
       -0.7213985 -0.63183683 -0.54788756 -0.5298827
000270 70 80 12 bf fe 0d 6c bf dd 8e 34 bf ff 26 47 bf
       -0.5722723 -0.9220885 -0.7053049 -0.7779388
000280 e2 83 d4 bf ba d9 81 bf 8f 58 64 bf 27 76 ed bd
       -1.6602747 -1.014457 -0.8919763 -0.115948014
000290 d9 31 92 bf 96 a2 61 bf 8c e1 c3 bf d0 41 fc bf
       -1.1421462 -0.8813871 -1.5303206 -1.9707584
0002a0 89 d7 a9 bf 24 bb bf bf 39 ee 6e bf 84 1c 70 be
       -1.3268901 -1.4978986 -0.9333225 -0.23448378
0002b0 9f 09 9f bf f6 a4 54 bf 50 e1 db bf 83 d1 83 bf
       -1.2424811 -0.8306421 -1.7178135 -1.0298313
0002c0 26 a5 54 bf 3c 40 80 be 7e 96 97 bf 24 34 fa be
       -0.83064497 -0.25049007 -1.1842802 -0.48867905
0002d0 53 0c c3 3d 1a e6 63 bf 95 8d 89 bf 7d f9 94 bf
       0.09523835 -0.8902298 -1.0746332 -1.1638638
0002e0 ee bc 59 bf 94 08 b2 bf 8d b7 33 3f b8 c5 09 bf
       -0.8505391 -1.3908868 0.7020195 -0.5381732
0002f0 56 cd 2b bf 86 61 a7 bf 43 9c 8a bf 72 58 58 bf
       -0.6711019 -1.3076637 -1.0828937 -0.84509957
000300 c5 8d 19 bf d7 17 da be 9d e5 bd bf 36 11 36 bf
       -0.5998195 -0.42596313 -1.4835697 -0.7112001
000310 aa 47 08 be 4d 61 c9 bf f5 a3 c3 bf 70 a8 d2 be
       -0.13308588 -1.5732819 -1.5284411 -0.41144133
000320 39 9d 2a bf 7b 22 32 3e 76 95 a5 bf a7 42 a0 bf
       -0.6664615 0.17395966 -1.2936237 -1.2520341
000330 89 f4 83 bf e3 e0 ae bf 65 23 82 bf 00 f8 8e bf
       -1.0309001 -1.366238 -1.0167052 -1.1169434
000340 f8 8e a5 bf 74 a6 db be ce 16 8d bf a9 79 d9 be
       -1.2934256 -0.4290043 -1.1022584 -0.42475632
000350 fc 3a 12 bf 23 ed 5f be 35 14 9d bf de e4 0e bf
       -0.57121253 -0.21867804 -1.2271792 -0.55817974
000360 5b ab 6f bf 9a 26 2b bf ad 1f 05 c0 26 b2 89 bf
       -0.9362084 -0.66855776 -2.0800583 -1.0757492
000370 54 64 38 3d 0c e3 44 bf 60 17 48 3e a3 de 44 bf
       0.045017555 -0.76908946 0.19540167 -0.76902217
000380 c0 08 b8 bf da 96 a2 bf 3b 94 5f be bf 75 9a bf
       -1.437767 -1.2702286 -0.21833889 -1.2067183
000390 0c f0 8b bf 78 59 95 bf d6 fa 9c bf 8e 11 a4 bf
       -1.0932631 -1.1667929 -1.2264049 -1.2817857
0003a0 c5 42 14 bf 5e 72 3e bf b6 ee 34 bf bc f7 9a bf
       -0.5791438 -0.7439326 -0.70676744 -1.2106853
0003b0 44 35 ac bf 7d 9c b7 bf f4 02 2c bf 40 86 9a bf
       -1.3453755 -1.4344631 -0.67192006 -1.207222
0003c0 88 7e 46 bf e3 97 b1 bf ba fe 28 bf 42 c0 89 bf
       -0.7753682 -1.3874477 -0.6601368 -1.0761797
0003d0 b7 f8 74 bf d1 78 73 bf c7 d1 0a bf b4 df a6 bf
       -0.9569201 -0.95106226 -0.54226345 -1.3037019
0003e0 24 86 8a bf 15 58 bd 3f e5 c5 81 bf a4 ee 91 bf
       -1.0822186 1.4792506 -1.0138518 -1.1400952
0003f0 97 25 09 3d ee 0d 7c bf e0 33 36 bf 22 37 76 bf
       0.033483114 -0.98458755 -0.71172905 -0.96177876

sequential_2/dense_5/MatMul;StatefulPartitionedCall/sequential_2/dense_5/MatMul f4 [8, 256]
000000 64 c0 ab be 23 82 3b be 46 75 7d 3e 57 3b 24 be
       -0.3354522 -0.18311362 0.24751768 -0.16038261
000010 50 c9 f5 3d 65 92 28 3e 28 db b5 be 36 e8 8a 3e
       0.12001288 0.16462095 -0.35518765 0.27130288
000020 0c 43 c3 be 4d 39 8f 3e 53 0b c1 be d4 97 2a 3e
       -0.3813709 0.27973405 -0.37703952 0.1665948
000030 58 10 b0 be ee 33 16 be e6 70 59 3e 20 1d b8 3e
       -0.3438747 -0.14668247 0.21234474 0.3595972
000040 7a 48 91 bd e8 bb 9a be b3 cd 35 be ad 4b 05 3e
       -0.07093902 -0.30221486 -0.1775425 0.1301715
000050 3c b4 77 3d b4 14 dc 3c e3 26 5f be 80 16 56 3e
       0.06047462 0.02686534 -0.21792178 0.2090702
000060 e5 ad a5 3e b4 89 cb be 62 47 45 be ab 2e b9 be
       0.32359233 -0.39753497 -0.19265512 -0.36168417
000070 f3 9a 0d 3e 6f c9 55 be 24 e6 85 3e 7b ff 2c be
       0.1382864 -0.20877622 0.26152146 -0.16894333
000080 8c b7 06 3e d3 58 8c 3e 5f 87 04 be 21 57 d1 be
       0.13155955 0.27411518 -0.12942265 -0.40886787
000090 46 8b 05 3d 45 57 d8 3c e6 75 60 bd 4a 2a 84 3e
       0.032603525 0.0264088 -0.054799937 0.25813514
0000a0 c2 75 54 be f0 09 25 3e c1 4b e3 bc 03 38 91 3e
       -0.20748046 0.16117072 -0.027746083 0.28363046
0000b0 3d 58 8c be 89 d0 91 3e c7 e4 dd 3c b6 40 f7 bd
       -0.2741107 0.28479412 0.027086629 -0.120728895
0000c0 cc 72 18 be 74 3f f2 be 8a 40 96 be b4 39 05 bd
       -0.14887542 -0.47314036 -0.29346114 -0.032525733
0000d0 22 ce c9 bb f6 76 8c be 27 44 77 3e 66 03 6e bd
       -0.006158606 -0.2743451 0.24147092 -0.05810871
0000e0 a7 36 45 be 98 a6 08 be 1c df d1 bd 00 27 9c bd
       -0.1925913 -0.133448 -0.10247633 -0.07624626
0000f0 cf aa 88 3e 9f d7 07 be 21 0f 89 3e 20 0c a8 be
       0.26692817 -0.13265847 0.26769355 -0.3282175
000100 f2 a2 a6 3e 6a 33 b3 be ef 60 b0 3e e0 e8 1d bd
       0.32546192 -0.35000163 0.34448954 -0.038552165
000110 ca 17 df 3d 3c 73 d5 be 96 d6 5d be bd cf 91 be
       0.10893209 -0.4168948 -0.2166389 -0.28478804
000120 49 3b cd 3d e9 9c 81 be 67 ce 82 be ae 91 c5 bd
       0.10021073 -0.25315025 -0.25548097 -0.09646927
000130 81 88 bf 3e f0 13 86 be 28 38 0d be 35 47 f9 bc
       0.37408832 -0.26187086 -0.13790953 -0.030429462
000140 37 93 30 3e 64 b0 4e 3d ff 9b d6 bd 5c ad a6 3e
       0.17243658 0.050461188 -0.10478973 0.32554138
000150 c8 4d a9 be a1 3c 90 be 3e b2 bd bd 73 a9 0d 3e
       -0.33067155 -0.28171256 -0.092625126 0.13834171
000160 56 b7 f1 bd 5a 8d 84 be c0 9d c0 be b7 ce 7f be
       -0.11802547 -0.25889093 -0.37620354 -0.24981199
000170 0e ed c8 3c 02 4d b0 3e 42 d5 24 3e 8f 12 d3 3e
       0.024527099 0.34433752 0.16096976 0.41225097
000180 7c d7 68 3e c8 cb 14 3d e1 6d 80 be 44 f1 96 be
       0.22738451 0.036327153 -0.2508383 -0.29480946
000190 ca c2 9d be 5c a0 a2 bc 9c 3c 93 be 9d 16 27 be
       -0.30812675 -0.019851856 -0.2875718 -0.1631722
0001a0 c5 ad 14 3e 91 92 39 be 21 f6 44 be 43 73 58 bd
       0.14519413 -0.18122317 -0.19234516 -0.052844297
0001b0 4e 3c a4 3e d9 eb b6 bd 7a 61 97 3e 17 d8 9d be
       0.3207726 -0.08931703 0.29566556 -0.30828926
0001c0 c8 03 bb 3e f2 47 9c be c1 11 6f be b4 34 05 3e
       0.36526322 -0.3052364 -0.23346616 0.13008386
0001d0 69 89 79 be dc 19 8a be ac f1 39 be f6 77 6d be
       -0.24368824 -0.26972854 -0.18158597 -0.23190293
0001e0 28 0b 1f 3e 30 fa 88 3e c1 a0 8a 3e 11 45 29 be
       0.155316 0.26753378 0.2707577 -0.16530253
0001f0 3f c6 61 be da 74 03 3e 96 04 84 bd 4e db b2 3d
       -0.22048281 0.12837544 -0.06446187 0.08733235
000200 ca 64 55 bd 0d 81 6f be 52 77 0d be cd 4d ab be
       -0.052098073 -0.23389073 -0.13815048 -0.33457795
000210 be db 67 3e e4 98 41 be ac be 3a be ee 11 27 3e
       0.22642419 -0.1890598 -0.18236798 0.16315433
000220 59 fc aa 3e 33 39 0b bb 74 2d 60 be 8b 70 d2 bd
       0.3339565 -0.002124381 -0.21892339 -0.10275372
000230 75 14 5f 3b 8d af d2 bd dd 2e a0 be 8c f7 2e 3d
       0.0034039293 -0.1028739 -0.31285754 0.042716548
000240 fd 97 27 3d ad 76 10 3e d1 f8 dd 3c db 07 66 be
       0.04091643 0.14107771 0.027096184 -0.22463934
000250 d5 dc 97 3e 78 b2 ad 3d 7a b7 fa 3d 1e b6 7b be
       0.2966067 0.08481306 0.122420266 -0.24581191
000260 5a bc 8a 3e 69 d3 e4 3d 7b f1 8f be 02 3b 97 3e
       0.27096826 0.11173136 -0.28113922 0.29537207
000270 8e 4b c9 bd fa fb 81 3e 16 4d c6 3e cd 2e e1 3d
       -0.09828864 0.25387555 0.38730687 0.10995255
000280 23 3a 89 be fe d7 d5 3d af 3f a9 be 08 4a a8 3d
       -0.26802167 0.10441588 -0.330564 0.08217245
000290 49 4c b1 be 93 d2 59 3e 4b 06 a0 be 66 16 7f be
       -0.34628513 0.21271734 -0.312548 -0.24910888
0002a0 27 a9 b7 bd 61 e7 10 be af 05 a5 3e 86 fe ae 3e
       -0.0896781 -0.14150764 0.322309 0.3417856
0002b0 a9 df ce be b6 6d a7 3e 7f 30 0c 3e ca 5d 68 be
       -0.40405014 0.3270089 0.13690375 -0.22692028
0002c0 7e a4 c2 3d b9 8a 80 be cc 06 6a be 6f 66 fd bd
       0.09504031 -0.25105837 -0.22854155 -0.12373053
0002d0 49 af a7 3e d3 b1 98 be 22 11 22 3e 8c c8 8e be
       0.3275092 -0.2982317 0.15826848 -0.2788738
0002e0 ba 40 68 be df f6 ba be 6b 83 2b 3e 79 85 92 3e
       -0.22680941 -0.36516473 0.1674935 0.28617457
0002f0 da 60 2a 3e 03 70 1f be 85 d9 8d be 41 41 72 3e
       0.16638508 -0.15570073 -0.27705017 0.23657705
000300 c9 20 91 be 06 68 b2 3e e7 09 55 be a7 6c a4 3e
       -0.28345326 0.3484499 -0.20804559 0.32114145
000310 b8 7f ab 3e 7b 7e ae be bc bf 2e bd 63 98 67 3d
       0.3349588 -0.34080872 -0.04266332 0.05654181
000320 c4 ba a1 bd bb 5f 30 3e cb c3 3e be 60 68 3e 3e
       -0.07896951 0.17224018 -0.18629377 0.18594503
000330 12 54 b8 3e a2 26 b2 3e 69 a5 e8 be c8 33 76 be
       0.3600164 0.347951 -0.45438698 -0.2404319
000340 91 e9 53 bd ca c6 8f 3e 9b 32 7f be ee b3 6e 3d
       -0.05173642 0.28081352 -0.24921648 0.058277063
000350 e9 09 a5 be 58 36 11 3d 37 b2 1b 3e 7f f8 7a 3e
       -0.32234123 0.035452217 0.15204702 0.24508856
000360 7b 01 5a 3e 2c 4e a8 3e 5c 62 a6 be 14 78 cd 3e
       0.21289627 0.3287214 -0.32496917 0.40130675
000370 5a 4e 8c be 1b a2 5c bd e3 91 b6 3e 7c f5 bd be
       -0.27403527 -0.053865533 0.35658178 -0.37101352
000380 42 87 bd be 26 0d cd 3c d4 4d 9f 3e 53 74 5d 3e
       -0.37017256 0.025030684 0.31114066 0.21626405
000390 5b 12 25 be 8a 05 93 be b5 ca 87 be fa e2 8e 3e
       -0.16120283 -0.28715163 -0.2652184 0.27907544
0003a0 12 c8 cf 3d 75 c2 a0 3c 5b 02 7a bd eb 79 8b be
       0.10145582 0.019623974 -0.061037403 -0.27241454
0003b0 6e 35 5e 3e d2 bb 1b 3e 83 0e 8c be 3e a9 ba bd
       0.2170007 0.15208367 -0.27354822 -0.09114312
0003c0 80 61 70 3e 04 01 f9 bd 29 76 2e 3d b6 cd 85 3d
       0.23474693 -0.12158397 0.042593155 0.06533377
0003d0 04 c4 0a 3d 83 03 c8 bd e1 7a fa 3c 48 c2 7b be
       0.03387834 -0.09766295 0.030576171 -0.24585831
0003e0 a3 61 97 be f4 b6 7a be be 0d 85 3e e7 bf 65 bb
       -0.29566678 -0.24483854 0.25987047 -0.003505701
0003f0 d3 13 af be 16 4e 72 bd ec bb a9 3d 9e 21 8c be
       -0.34194812 -0.0591565 0.082877964 -0.27369398

sequential_2/batch_normalization_4/FusedBatchNormV3;StatefulPartitionedCall/sequential_2/batch_normalization_4/FusedBatchNormV3 f4 [256]
000000 c0 1c 6e bd f6 79 2e be f4 b0 09 3e 64 12 0c 3e
       -0.058132887 -0.17038712 0.13446409 0.1367889
000010 9c a4 e9 3e 54 a3 a0 3e 40 02 2a 3c d4 b9 bd 3e
       0.456334 0.3137461 0.010376513 0.37055838
000020 31 37 1b 3f 72 c2 f1 be 7c 35 ef 3d e6 5c 3e be
       0.6063109 -0.47218663 0.11680123 -0.18590125
000030 c5 89 9d be 53 af fe 3e aa ec 95 3d a8 f1 0c 3e
       -0.30769172 0.49743137 0.07320531 0.1376406
000040 b5 3f eb 3e 8e a3 80 3e 3f 25 9f 3e fc dc 59 3d
       0.45947042 0.25124782 0.31083104 0.053189263
000050 f1 6d 31 3e aa f8 48 be 94 2d 4d 3e 82 e1 91 3d
       0.17327096 -0.19626108 0.20036918 0.0712309
000060 1c 3f 06 3f 8c 29 0c 3e 86 26 44 3e 00 69 99 bd
       0.5244005 0.13687724 0.1915532 -0.0749073
000070 f8 f9 52 3d 55 0a 49 3f fc f3 83 3d 83 0f e0 3e
       0.05150792 0.7853139 0.06443021 0.43761835
000080 eb 53 82 3e 40 16 e7 3c 23 7e 89 be 88 84 d3 3c
       0.2545465 0.028208852 -0.26854047 0.025820032
000090 a4 24 ef 3d ad 52 24 3f 5f 8c 23 be d7 b2 f7 3e
       0.116769105 0.64188653 -0.15971516 0.4837863
0000a0 4c 21 e8 3d 50 90 ca 3e 12 b8 d2 bd 00 3c 1d ba
       0.11334476 0.39563227 -0.10289015 -0.00059980154
0000b0 e0 bb c2 3e 3f 53 6c 3e 1d 0a 3a be 53 38 c6 3e
       0.38033962 0.23078631 -0.1816792 0.38714847
0000c0 6f b7 27 3e 5c 69 8e 3e e7 32 34 be 0f 55 66 3e
       0.16378568 0.27814758 -0.17597543 0.22493385
0000d0 27 b6 00 bf a3 a9 2a 3e 54 88 df 3d c8 b0 b8 3e
       -0.5027794 0.16666274 0.109146744 0.36072373
0000e0 cc bb d2 3d 48 4c 56 bf 40 68 d3 3c 2a 5c d1 3e
       0.10289726 -0.83710146 0.025806546 0.40890628
0000f0 71 0d 50 3e 0d a2 c0 3e ce c3 04 be 08 94 b6 3d
       0.20317627 0.37623635 -0.12965319 0.089149535
000100 80 9d a3 3a 16 df 44 3e 6f b2 7d 3e ca 0d 86 3e
       0.0012482852 0.19225726 0.24775098 0.26182395
000110 f4 8c 0f bf aa 1f a8 3e c6 6e 9d 3e 15 43 2e 3f
       -0.5607445 0.32836658 0.30748576 0.6807111
000120 d8 ba 11 3f 1c 16 e0 3d 38 b5 91 be 6e fe c8 be
       0.56925726 0.10941717 -0.2845857 -0.39256614
000130 4c 4c 59 bd 24 ff a4 3e de 0c 49 3e d8 44 8a 3d
       -0.053051278 0.32225907 0.19633815 0.06751412
000140 40 9a d8 bd 93 ca 9c 3e c4 eb 04 3f ff 98 9e 3e
       -0.10576296 0.30623302 0.5192225 0.30976102
000150 f2 de 0a 3f 8c 04 b8 3e d8 0f 12 be e8 d8 b2 3d
       0.5424644 0.3594097 -0.14263856 0.08732778
000160 f6 46 84 3e 19 af 92 be f2 33 b5 3e eb 18 c0 be
       0.2583539 -0.28649214 0.35391194 -0.3751901
000170 f2 71 9c 3e e0 b3 ae 3d 05 12 3c 3e 22 f3 f8 be
       0.30555683 0.08530402 0.18366249 -0.48622996
000180 20 7a d6 3e 55 94 9b 3e 60 99 64 bc 5a 60 b3 3e
       0.4189005 0.30386606 -0.013952583 0.35034448
000190 26 67 3a 3f 38 0a 48 3d f8 86 ee 3c 16 73 c0 bd
       0.7281364 0.04883787 0.029117092 -0.09396951
0001a0 dc 4c 4c 3e 7a 48 c1 3e 40 fa 62 bd 50 66 51 3e
       0.19951195 0.37750608 -0.05541444 0.20449185
0001b0 22 3a 88 be e3 87 8f 3e 58 9d 12 be 58 cd 40 3f
       -0.26606852 0.2803336 -0.14317834 0.7531333
0001c0 1e fb ca 3e d0 b8 ab bc ad 5a 94 3e bf 13 68 3e
       0.39644712 -0.020962149 0.2897543 0.22663783
0001d0 21 a3 4e 3e 7d 29 47 3e a4 6a 3c be f0 82 cd bc
       0.20179416 0.1944942 -0.18400055 -0.02508685
0001e0 9d 68 0a 3f 84 84 c7 3e 1b c3 a7 3e 6b 1b e0 bd
       0.5406588 0.3896829 0.3276604 -0.109427296
0001f0 e0 99 1f 3c 22 82 76 3e c0 97 7e 3b f6 1e 1b 3e
       0.0097412765 0.24073079 0.0038847774 0.1514853
000200 8a e9 96 3e a0 ea 7a 3d 98 e8 d5 3c 09 08 77 3e
       0.2947505 0.061258912 0.026111886 0.24124159
000210 de 84 ea bd 5e 23 00 3f 1f 38 a4 3e fc a6 5e 3e
       -0.11451124 0.50053966 0.32074067 0.21743387
000220 54 22 d9 be ed fc 99 3e 65 ac f4 bd c5 dc 99 3e
       -0.42409003 0.3007578 -0.11946944 0.30051246
000230 99 47 84 be 9a fe d7 3e e1 e9 d1 3e a6 6e cf 3e
       -0.25835875 0.42186433 0.40998748 0.40514106
000240 b2 ea eb 3d 16 6d d0 3e f9 fd a0 3e b7 a5 e1 3e
       0.11519374 0.40708226 0.31443766 0.44071743
000250 65 0e fe be 2b 6c 79 be 7c 2d b8 3e 6a 3e 9c 3e
       -0.49620357 -0.24357669 0.35972202 0.30516368
000260 71 4d 1e bf 04 9e f7 3e 0d 09 d5 be eb 0d 19 3e
       -0.61836916 0.48362744 -0.41608468 0.14946716
000270 01 57 bb 3e 38 de 8c 3e 7a 3d 82 3e f5 a7 d4 3e
       0.36589816 0.2751329 0.25437528 0.4153439
000280 a0 57 89 be 4e 54 23 3e 80 cb 83 bd 5c fb bf 3e
       -0.26824665 0.15950128 -0.06435299 0.3749646
000290 5c c6 6f 3e 8c c7 86 3e b8 70 d4 3e 13 b3 29 3f
       0.23415512 0.26324117 0.41492248 0.6628887
0002a0 57 de 96 3e ac c2 c6 3e 01 f9 39 3f d5 c2 94 3e
       0.29466507 0.38820398 0.72645575 0.29054895
0002b0 af df d5 3e 78 95 03 bf ba 38 8e 3e 95 f6 22 bf
       0.4177222 -0.51399946 0.27777654 -0.63657504
0002c0 74 35 56 be 86 69 45 3e 54 55 5e 3e 57 45 8e be
       -0.20918828 0.19278535 0.21712238 -0.27787277
0002d0 b4 4b ea 3e 44 57 52 bf 7a fc 25 bd 94 f7 0c 3f
       0.45760882 -0.82164407 -0.040523984 0.55065274
0002e0 b6 cd 99 3e 9d 88 e0 3e 6c 49 ec 3d 63 9f 18 3e
       0.30039757 0.43854228 0.115374416 0.14904551
0002f0 74 ca 7f bd 4b 05 93 bd c1 61 c3 3e 41 95 d1 3d
       -0.062448934 -0.07178744 0.38160518 0.10233546
000300 74 48 bc 3e 18 fa a9 3c 4e 9b a3 3e 1f 5c 01 3e
       0.36774027 0.020749137 0.31954426 0.12632798
000310 00 04 39 bd 42 6d 77 3e bc b6 34 be c2 8f 14 3e
       -0.04516983 0.24162772 -0.17647833 0.14507964
000320 20 f6 27 3d 58 24 ae be 10 c9 c3 3e 90 1d 62 3e
       0.041006207 -0.34012103 0.38239336 0.2208159
000330 e2 e7 96 3e 9c a0 e0 3e 9c 8e ed 3d 91 fe c5 bd
       0.29473788 0.43872535 0.11599466 -0.09667695
000340 08 6f f4 3e 93 d8 c6 3e b8 30 14 3e dc 04 e3 3d
       0.4774096 0.38837108 0.1447171 0.11084911
000350 48 e7 66 bd cc 4e 3a be 8e 34 b5 3e ea 18 bb 3e
       -0.05637291 -0.18194121 0.3539166 0.36542445
000360 02 b4 a3 bd 6c e2 a9 3e c7 67 e5 3e a0 08 da 3b
       -0.07993318 0.3318056 0.44805738 0.00665386
000370 32 ce 18 3e d0 9d 7d 3e 40 80 7b 3d b1 10 0c 3e
       0.14922407 0.24767232 0.061401606 0.13678242
000380 86 58 95 be d8 ce 24 3c 74 c9 01 3e 19 83 85 3e
       -0.291691 0.010059081 0.12674505 0.26076582
000390 a4 45 ec be 60 cc fe 3e ea 83 a9 3e e4 10 0b 3f
       -0.46146882 0.497653 0.33108455 0.5432265
0003a0 3b 2d 4a 3e 82 4c 46 bf 60 7b 3f bf 0e 38 56 be
       0.19743817 -0.7746049 -0.7479763 -0.2091982
0003b0 13 36 16 3f 04 30 30 3f 3c e2 cd 3e f5 05 2e 3f
       0.5867626 0.68823266 0.40211666 0.6797784
0003c0 82 89 80 3e 80 1c 64 bd 57 f7 c9 3e 38 df d6 3e
       0.2510491 -0.055691242 0.39446518 0.41967177
0003d0 c7 25 55 bf c0 ca 64 be 90 14 d5 3c 64 3b 9a 3e
       -0.8326077 -0.22342968 0.026010782 0.30123436
0003e0 80 7f 85 bc ec 4b d4 bd f3 82 cd 3e 7a d7 0c 3f
       -0.016296148 -0.103660434 0.4013897 0.5501629
0003f0 88 74 1c be be c1 87 3d f5 d7 16 be 5a be b5 3e
       -0.15278828 0.0662875 -0.14730819 0.3549679

sequential_2/conv2d_3/Conv2D;StatefulPartitionedCall/sequential_2/conv2d_3/Conv2D f4 [256, 3, 3, 1]
000000 07 92 64 3d d3 35 2a bd 88 9b c0 3c 1d 67 02 3d
       0.055803325 -0.041555237 0.023511663 0.031836618
000010 a0 99 8a 3c 42 ce 53 bc 87 00 3f 3b 8c 59 b2 3c
       0.016918957 -0.012927594 0.0029144601 0.021771215
000020 5c 23 d4 3c c5 44 2d 3d 9d 60 63 3d ae 48 c5 3d
       0.025895767 0.04230191 0.05551206 0.09633003
000030 db c1 bf bc 60 69 82 3c c3 23 26 3d 48 38 d4 bd
       -0.023407867 0.015919387 0.04056145 -0.10362297
000040 1d 5c 28 bd 02 79 ba 3d fb 07 81 be c3 ce 60 3e
       -0.04110347 0.09105112 -0.252014 0.21953873
000050 c4 69 6b 3e 33 62 4e 3c 4b 49 57 3d 05 b1 7a bd
       0.22989565 0.012596655 0.052560132 -0.061203975
000060 7c 68 37 3e ca ca ac bd 0f 2f 67 be d4 eb 5e be
       0.17910951 -0.084371164 -0.22576545 -0.21769649
000070 09 dd 81 3e 92 32 53 be 28 3e 18 3e c7 0b 37 bf
       0.2536395 -0.2062476 0.1486746 -0.71502346
000080 d4 3a 9a be b3 77 03 3d 80 23 83 3e 0f 4d 0e 3f
       -0.30123007 0.032096576 0.25613022 0.5558633
000090 74 d5 89 bb b4 48 c8 3d 8b 86 ca 3d 3d 1e 3c bd
       -0.004206354 0.09779492 0.09888943 -0.045927275
0000a0 a1 36 57 ba 72 48 c1 3d e3 2b 13 bd a6 36 9b bd
       -0.00082097395 0.09437646 -0.035930526 -0.07578783
0000b0 88 17 74 3d 0f 1d 5a 3d e2 b6 32 3e 05 a3 45 3e
       0.059592754 0.05325037 0.17452577 0.19300468
0000c0 a1 53 9a 3a 9f 44 c1 3c e0 0c 94 3e 07 12 b8 bc
       0.0011774191 0.023592291 0.28916073 -0.022469534
0000d0 65 1d 28 3d 38 7f 03 3d 0d 50 84 bc ed e9 b3 3d
       0.041043658 0.032103747 -0.016151452 0.08784852
0000e0 df 83 43 3e 19 39 94 3d 6e 33 8d bd ab 18 7f 3d
       0.19093274 0.07237453 -0.06894575 0.062279385
0000f0 46 5f 02 3d a9 95 f9 bc 55 eb 45 bc 05 98 f7 bd
       0.03182914 -0.030466871 -0.012080033 -0.12089542
000100 8b a5 19 3e 61 4c 90 3d f2 de 39 be 73 02 03 bd
       0.15004556 0.07045818 -0.18151453 -0.031984758
000110 f4 e5 df bd a5 a5 5a 3e f7 78 57 bd 6e ee 1c bd
       -0.10932532 0.21352251 -0.052605595 -0.03831332
000120 6a 06 a2 bd b8 20 97 bc 1b 9c c2 bd e0 c4 b7 3d
       -0.0791138 -0.018448219 -0.09502431 0.08973098
000130 b3 b7 0f bc 82 70 3b bc 95 34 9a 3d 9e f3 d8 bc
       -0.008771825 -0.011440398 0.075295605 -0.026483353
000140 71 a7 e8 3d d8 ad 76 bd bd ae 55 bd c0 25 c9 be
       0.11360062 -0.060224384 -0.052168597 -0.39286613
000150 a8 93 69 bd 38 8f 48 3d 7e 1b 34 be 92 ec 29 3e
       -0.05702558 0.04896471 -0.17588612 0.1659415
000160 11 54 1c 3e e3 d7 92 3e 7b b0 89 3d 03 04 ab 3d
       0.15266444 0.28680333 0.06723114 0.083503745
000170 c6 2f 00 3e ac 28 77 bb eb ab 2c 3d 60 15 83 3e
       0.12518224 -0.0037713451 0.04215614 0.25602245
000180 16 9f 00 3c 2f 7c e4 bc ed 92 0d 3d 3e 1b d9 bc
       0.007850429 -0.027891247 0.034563947 -0.026502248
000190 27 ee 62 bc 1f a9 d5 3c e4 b7 02 bd 96 3b 10 ba
       -0.013850725 0.02608162 -0.031913653 -0.0005502043
0001a0 97 01 a6 3c 86 e1 9f bc af 53 25 bc 97 1b c2 3b
       0.02026443 -0.019516718 -0.0100907525 0.005923699
0001b0 f3 40 b4 3c 7b 90 07 bb 34 69 81 3c 0c ac 2b 3d
       0.022003626 -0.0020685482 0.015797235 0.041912124
0001c0 8d a5 de bc 96 fd 12 3c 1f 43 cc 3c 15 9e 84 bd
       -0.02717855 0.008971592 0.02493435 -0.06475464
0001d0 12 50 9f bc d7 45 96 bd d3 a2 30 3d 3f fc c4 3c
       -0.01944736 -0.0733754 0.04312403 0.024046062
0001e0 b7 49 a1 3a 05 d2 16 3b 4b b5 27 bd 37 eb 51 bc
       0.0012305294 0.0023013365 -0.04094438 -0.012812427
0001f0 87 a3 88 3d 17 ba 70 bd 3b 21 95 3d 2f 03 07 bd
       0.06671815 -0.05877122 0.07281729 -0.03296202
000200 08 ca 15 3d 5e 38 2e bc f9 cc 9e 3d df 70 e9 bd
       0.036569625 -0.010633556 0.07753939 -0.113984816
000210 11 5d 16 be 06 45 a6 bd 73 56 87 bd 48 35 e7 3d
       -0.1468394 -0.08118634 -0.06608286 0.112894595
000220 b4 b8 a3 3e c7 31 83 bd 78 f9 07 3e 8d f9 b4 bd
       0.31976855 -0.06405979 0.13278759 -0.088366605
000230 e0 b0 3c 3e 7e 8f 1c be c2 71 55 be f0 7f ac 3d
       0.18426847 -0.15289113 -0.20844176 0.0842284
000240 43 77 47 3e 5c 90 7a 3d 07 5c 74 be 8f 04 ec bd
       0.19479088 0.061172828 -0.2386323 -0.11524307
000250 c4 61 68 be 12 52 96 3e a4 f9 06 be 2e a8 89 3e
       -0.22693545 0.2935949 -0.13181168 0.26886123
000260 11 71 7e bd 57 7c 8c 3e 40 6a 72 3e 41 0e 71 3e
       -0.062119547 0.27438614 0.23673344 0.23540594
000270 6c 04 aa bc 31 bf 59 3d 6b b3 fb 3c a3 7e 6a be
       -0.020754062 0.05316085 0.030725202 -0.2289987
000280 b8 b8 b0 be 7c 21 9a be 7f 6c 0c be 6a 55 bf 3d
       -0.3451593 -0.30103672 -0.13713263 0.09342463
000290 dd b6 61 be df db 16 3e 48 28 38 3e 94 aa 0e bd
       -0.22042413 0.14732312 0.17984116 -0.034830645
0002a0 12 3c 2d 3d 10 b3 a0 bd 12 a1 15 3d 77 ea af bc
       0.042293616 -0.078466535 0.03653056 -0.021474106
0002b0 26 df a9 be b3 7c c6 3e 8c 4b 26 be 84 34 5c 3e
       -0.3317806 0.38767013 -0.16239756 0.21504408
0002c0 13 b1 32 be b6 8c 56 3e a7 6a 86 3e b7 59 11 bf
       -0.17450361 0.20952114 0.26253244 -0.5677752
0002d0 ec 85 d0 bc d0 2a 6d bd fe 13 10 3c 72 3d 32 3d
       -0.025454484 -0.057902157 0.008793829 0.04351563
0002e0 c4 dd 31 bd 2a bd bb bc a9 4a 85 3d 76 18 97 bd
       -0.043424383 -0.022917349 0.06508381 -0.073777124
0002f0 31 88 73 bc 64 67 2b bd 42 82 53 3d a5 97 25 bd
       -0.0148640135 -0.041846648 0.051637895 -0.040427823
000300 8d e9 31 3d a1 d4 1b 3e 69 56 ee 3d 26 5b b9 3d
       0.043435622 0.1521783 0.11637575 0.09050588
000310 10 a3 47 3c 48 91 25 bd 8c df 97 3d 8c 12 1a 3d
       0.012184873 -0.040421754 0.07415685 0.037615344
000320 0c 4e 06 bd 44 56 97 bc 20 bc c6 3d d6 56 4f 3d
       -0.032789275 -0.018473752 0.09703851 0.050619923
000330 8c a2 dd 3c 49 8d 01 3d e1 27 4d 3d 3d 10 6d 3c
       0.027055047 0.03162888 0.05008686 0.014469204
000340 29 2f f0 bd ca 6c 49 3d 0c 5a 93 3d 1e a1 25 be
       -0.11727745 0.049176015 0.071949095 -0.16174743
000350 1a f1 84 3e 2d 6a 7d bd bc 5e 61 bd 0f 02 bf 3e
       0.25965196 -0.061868835 -0.055021986 0.37306258
000360 4b 4e 5f 3c c9 dd b6 3c e7 a2 42 bc ff 1d 0b 3d
       0.013629506 0.022322552 -0.011879659 0.033964153
000370 55 de 3f 3d 3e ff 92 3d 47 fe 1c 3d ae 86 0a be
       0.04684289 0.0717759 0.038328435 -0.13527939
000380 6a 61 9f bd b2 73 b8 3b a2 f9 7e bc 7a 55 50 3b
       -0.07782252 0.0056290263 -0.015562447 0.003178923
000390 ea 26 14 3c d6 e3 ca bb 21 76 2a bc 72 67 7c 3d
       0.009042481 -0.006191711 -0.010404141 0.06162209
0003a0 81 50 e9 3c 2a de f7 bc 7a af 4c 3e 7e 53 8a be
       0.02848077 -0.030257303 0.19988814 -0.27016824
0003b0 04 a8 63 3e 41 76 a3 bd af a1 e2 bd 0e 5c 58 3d
       0.22232062 -0.079815395 -0.11065995 0.052822165
0003c0 4c f6 07 be 57 22 d0 3d 97 86 2d 3e 99 f0 18 bc
       -0.13277549 0.101628 0.16945873 -0.009334707
0003d0 27 52 c0 bc 08 26 b9 3d ab 7c 6e 3b 05 52 9a bd
       -0.023476673 0.09040457 0.0036390226 -0.07535175
0003e0 82 d6 9b 3d 26 ec 92 bd a9 c2 53 bd fc 46 26 3d
       0.076092735 -0.07173948 -0.051699314 0.04059504
0003f0 34 52 97 bd 8a ae a2 3b 47 ad 16 be 9f 57 a7 3c
       -0.07388726 0.0049646543 -0.14714538 0.020427523

sequential_2/depthwise_conv2d/depthwise;StatefulPartitionedCall/sequential_2/depthwise_conv2d/depthwise f4 [1, 3, 3, 256]
000000 90 5d 99 3d 2b 6f 63 bc 22 7a 5a bd 74 41 4b bc
       0.07488549 -0.013881485 -0.05333913 -0.012405742
000010 35 61 30 bc ca 25 4f 3d ec 76 92 3d 21 96 b9 3d
       -0.010765363 0.050573148 0.07151589 0.09061838
000020 b6 cb ed bc 2a c1 37 b9 21 87 80 3c 53 df 45 3b
       -0.029027801 -0.00017524199 0.015689434 0.0030192926
000030 77 c0 13 3d 18 9c 6d bd e9 73 85 3b 95 e4 e4 bd
       0.03607222 -0.05801019 0.0040726555 -0.11176411
000040 05 cb 6d 3d 76 5b e4 bd 2b 66 d1 bc 07 1b 22 bd
       0.058054943 -0.11150257 -0.025561413 -0.039576557
000050 33 7c eb 3d 3f c1 28 be 38 76 aa bd 30 1d 8b 3b
       0.114982985 -0.16479968 -0.0832333 0.004245423
000060 dc 20 b8 bc d6 00 45 bc 82 08 4e 3d 60 c7 27 3c
       -0.022476606 -0.012024125 0.050301082 0.010240406
000070 dc 08 c1 3c 24 8f 0c 3d f3 83 bf 3d 39 50 81 bd
       0.023563795 0.034316197 0.09351339 -0.063141294
000080 44 55 bf 3c 7c 8b 20 3e 9a cd 52 3c a6 f2 07 3d
       0.023356088 0.15678209 0.012866402 0.033190392
000090 2a 3b 83 bd 9e 2d 43 3d 5b 0f 76 bd b0 35 b1 bc
       -0.06407769 0.047650926 -0.060073238 -0.021632046
0000a0 f0 4f 11 bd c0 d2 88 bd 68 a3 b3 bc ff 2d 83 3c
       -0.035476625 -0.06680822 -0.021928504 0.016013144
0000b0 7e da 1d 3d ee a6 42 bc 75 70 0c 3e 92 b0 9c bc
       0.03853845 -0.011880619 0.13714774 -0.019127164
0000c0 d5 be ba bd 4d 56 31 be fb 1a 90 3c 6f c4 8e 3d
       -0.091184296 -0.17318077 0.01759099 0.069710605
0000d0 8c c1 76 3d 7d 3b 1c bd 82 23 64 bc 32 95 0c 3d
       0.060243174 -0.03814267 -0.013924481 0.03432197
0000e0 61 ca c9 bc f8 35 e9 3b ce 2d be 3d d8 ce f7 bc
       -0.024632635 0.0071170293 0.0928608 -0.030249998
0000f0 c2 21 99 3c e0 75 95 3d 14 87 c6 bd 6e dd 6b 3d
       0.018692855 0.072978735 -0.09693733 0.05758422
000100 6a 23 22 3d 43 e4 31 bd fe 34 00 be 7e ed 51 bd
       0.039584555 -0.043430578 -0.12520215 -0.05125188
000110 8f 09 67 3d 5d 11 0c 3d 76 99 5f 3d c8 3d 34 3c
       0.0564056 0.034196246 0.05458971 0.011001058
000120 05 cc 59 bd 53 97 e7 3c 58 eb cb bd f7 d4 91 bd
       -0.053173084 0.0282704 -0.09956998 -0.07120698
000130 dd 93 94 ba 01 eb 37 3d c2 17 7a bd 6d 20 3a 3e
       -0.0011335571 0.04490185 -0.061057813 0.18176432
000140 9d 65 53 3e f4 97 82 3d a5 5c c4 ba 57 cb e1 bd
       0.20644231 0.06376639 -0.0014981224 -0.11025112
000150 f8 d8 33 3d 5a 2e 2a 3d 83 99 80 bd 76 8a 87 bc
       0.04390809 0.04154811 -0.0627928 -0.016545516
000160 af 43 9e 3d d7 2f d2 3c 1d d7 a9 bd 9e 98 e1 bc
       0.07727753 0.025657577 -0.08292983 -0.027538594
000170 4f 74 5f bd e5 87 c4 3b 38 df 5f bd df db a4 bd
       -0.05455428 0.005997645 -0.054656237 -0.080497496
000180 19 6c 36 bc 4d ce b7 bc fb 1a da bd 4e f2 ae bc
       -0.011134171 -0.022437239 -0.10649677 -0.021355774
000190 a9 ee 86 bd 96 90 fb 3c 21 0b 8e bd 68 74 42 bc
       -0.065884896 0.030708592 -0.069357164 -0.011868574
0001a0 48 cb 1b bd 26 3c 2b bd 1d 9f 1f bd 26 56 87 bd
       -0.03803566 -0.04180541 -0.0389701 -0.066082284
0001b0 df 78 90 bc 19 13 a6 3d 23 fb 93 bd ed be 1c be
       -0.01763576 0.08109111 -0.07225635 -0.15307207
0001c0 1e 3c 5b bd 3d e6 e2 3d d5 40 ba bc 8c 99 d9 bd
       -0.05352413 0.11079071 -0.022735992 -0.1062499
0001d0 1d 52 88 3d fa b3 25 bd 7b 36 98 3d 90 05 3a 3c
       0.06656287 -0.040454842 0.07432266 0.011353865
0001e0 f0 7d 33 bd be 71 90 3d b6 97 68 3c 89 a9 4b 3d
       -0.043821275 0.070529446 0.014196327 0.04972223
0001f0 0f f4 3f bc 7d 26 f4 bc 04 4f 59 bd 2f 2e 95 bc
       -0.011715903 -0.029803509 -0.05305387 -0.018210499
000200 d5 50 f2 bd 68 a0 8f 3c e2 f5 85 3d 0f 77 ed 3c
       -0.11831824 0.017532542 0.06541039 0.028987436
000210 6a 08 b9 3b 43 bb a1 bd 4f 94 bd bc 5d 5e 2d bd
       0.005646755 -0.078970455 -0.023142008 -0.04232632
000220 ac cf c2 3c 7b 98 22 bd 96 cf 8e 3d 81 02 47 3d
       0.023780666 -0.039696198 0.069731876 0.048586372
000230 02 9f 1f 3d 12 47 8d ba d1 ec e5 3c b4 c4 ff 3c
       0.03897 -0.0010778627 0.028067024 0.031221725
000240 bb 8f 21 3d 73 1e c2 bc 84 8b 0e be 8e 5b 90 3c
       0.039443713 -0.02369616 -0.13920408 0.017621782
000250 e3 8a 47 3c e7 b8 7c bd e6 d0 e6 bd d7 f0 15 3d
       0.012179109 -0.061699774 -0.11270313 0.036606636
000260 41 8f 43 3c ad 76 45 3d 1c 04 e1 bd ca d6 24 bd
       0.01193601 0.04820888 -0.10987112 -0.0402439
000270 ad 72 98 3d 0d e7 9d bd 69 80 1e be 93 bc d5 3d
       0.07443748 -0.07710085 -0.15478672 0.10436358
000280 b4 1c 8c bb c6 e4 37 bd 99 23 aa 3c 5f 28 0e 3d
       -0.0042758826 -0.04489591 0.020768927 0.03470647
000290 67 90 82 bc d9 0c 89 3d 56 56 38 bd 13 99 09 3d
       -0.015937997 0.066919036 -0.04500421 0.03359325
0002a0 9a 7e 07 3e 53 9a 0d bd 05 90 cb bd 00 42 8b 3b
       0.13231888 -0.034571003 -0.09939579 0.004249811
0002b0 e9 a2 56 3c 27 bc 6c 3d 92 1e 9c bc 6f 30 05 bd
       0.013100364 0.057796624 -0.019057546 -0.032516893
0002c0 4c 43 a5 3d c0 be 57 bd c9 6c 60 bd b7 59 15 bc
       0.080694765 -0.052672148 -0.054791246 -0.009115628
0002d0 0f 22 10 3d 9f f6 ee bd 5b 2d e4 3c 15 42 dd bd
       0.03518873 -0.11668133 0.027853658 -0.1080362
0002e0 80 e1 de bc 8f c3 94 3d cb 9d 34 bd b3 32 78 bd
       -0.027207136 0.07263862 -0.044095796 -0.060595226
0002f0 dd 54 ef 3c b9 9b 19 bc 03 05 9a bd ff 41 2c bd
       0.02921527 -0.009375506 -0.07520487 -0.042055126
000300 6d 64 a4 bd d7 03 b5 bd bc 5e 36 3d 83 26 54 3b
       -0.08026967 -0.08838623 0.04452394 0.0032371588
000310 43 f2 ae 3c f6 28 2a be 5a 4b 86 3d 43 c0 d3 bd
       0.021355754 -0.16617188 0.06557341 -0.103394054
000320 2d 5b a0 3c 49 03 82 bd 7c 2b fd 3c 20 af da 3d
       0.019574726 -0.06348283 0.030904524 0.10677934
000330 7e 4b 9c bd 0b 8e ba 3c e6 12 be 3c 45 7e 64 3d
       -0.076315865 0.02277281 0.02320237 0.055784483
000340 bf 1d d6 3d ae 13 b8 3d 0a fc 78 b9 42 eb 98 bd
       0.10454892 0.089881286 -0.00023745015 -0.07466747
000350 9b c1 58 bd 8a 14 92 bd 5a c4 20 bd 64 c2 b3 bd
       -0.05291901 -0.07132824 -0.039249755 -0.087773114
000360 2c d8 26 3d 6a c6 67 bc 2d 08 69 bd 38 0f 17 3d
       0.0407335 -0.014146427 -0.056892563 0.036879748
000370 91 3e 6e bd 79 1f 77 3b cd 25 03 be 64 0d a0 3d
       -0.058165137 0.0037707968 -0.12807389 0.07815054
000380 19 bc 99 3c b9 48 bf 3d aa 41 49 3d 0b 91 09 bb
       0.01876645 0.093400426 0.049134888 -0.0020990993
000390 3f c1 81 ba 73 85 a1 bc 73 f1 b5 3d 02 87 06 3e
       -0.0009899511 -0.019716954 0.088839434 0.13137439
0003a0 71 39 f5 bc 66 82 87 3d 28 9a ee bc 26 fd b4 3c
       -0.029934617 0.066166684 -0.029126242 0.022093367
0003b0 2d 4f 13 bd fa 89 b0 3c 47 84 9e bd 36 aa cf bc
       -0.03596418 0.021550167 -0.07740074 -0.025349718
0003c0 75 44 07 3e 64 12 7f 3c 5c eb 32 3d 9d 02 36 bd
       0.13209708 0.0155683495 0.043681487 -0.044436086
0003d0 1b b8 16 bd e6 7d 12 3e c7 1a 6e 3d 3a 7a cf 3c
       -0.03679667 0.14305839 0.058131006 0.025326837
0003e0 67 d3 a9 3c 71 44 6a 3d 5d 67 79 3d 21 2a d1 bc
       0.020730687 0.057194177 0.06088959 -0.025532784
0003f0 02 5a 8b 3d bd 59 98 3d 87 8f f7 bd c1 f6 c6 3c
       0.06804277 0.07438991 -0.120879225 0.024287583

sequential_2/conv2d_4/Conv2D;StatefulPartitionedCall/sequential_2/conv2d_4/Conv2D f4 [256, 1, 1, 256]
000000 00 59 e0 bd 29 70 b7 be 6f e1 f8 be 72 6a c0 3f
       -0.109544754 -0.3582776 -0.48609492 1.5032485
000010 12 2b 15 bf fe 1c 56 bf 5e 3d 55 be dd f0 2d 3f
       -0.58268845 -0.8363799 -0.20824191 0.67945653
000020 a8 71 8a bf 3a fb 0b bf eb 05 19 bd 58 df cd 3e
       -1.0815935 -0.54680216 -0.03735916 0.4020946
000030 19 16 75 bf c0 df 89 bf e1 f3 08 bf f7 78 20 bf
       -0.95736843 -1.0771408 -0.5349713 -0.6268458
000040 c7 da db 3e d7 7a e3 3e 8f 64 a3 3e a8 76 ab 3e
       0.4294035 0.44429657 0.31912658 0.33488965
000050 2d 10 cb bc b1 f2 80 bf bc 61 b9 bd ce a7 4a bf
       -0.024787987 -1.0074064 -0.090518445 -0.791623
000060 0a 04 ac bf ec 56 6c 3e f1 77 1f bd 86 27 c7 be
       -1.3438733 0.23080033 -0.038932744 -0.3889734
000070 b8 65 13 3e 53 08 9d bf 40 0f 29 bf ed 4e 72 3f
       0.14394271 -1.2268165 -0.66038895 0.9465168
000080 f2 07 bf be 9e c9 f0 bc 02 5c 3b bc 2a db 9f 3d
       -0.3731075 -0.029393014 -0.011435511 0.07805474
000090 3a 9e 93 3e 0f 56 4c bf 90 3c fe be 96 66 bf 3d
       0.28831655 -0.79818815 -0.4965558 0.093457386
0000a0 19 a8 71 be c3 b6 82 3f 1a eb 54 3f de 3c 84 be
       -0.2359928 1.0212024 0.83171237 -0.25827688
0000b0 d7 ba 2e 3f 2f ab 6e 3f df 27 87 bf 30 a7 85 3e
       0.68253845 0.93229955 -1.0559043 0.26104116
0000c0 3e 71 35 3f 7b 7c ac 3f 8d 70 8f 3e b9 84 49 3f
       0.7087592 1.3475488 0.28015557 0.78718144
0000d0 1c f3 8f bd 86 ab 16 3e df f3 29 bf 97 a1 56 3f
       -0.07028791 0.14713868 -0.6638774 0.83840317
0000e0 4a ab c7 3d cd 9e 9c bd 56 ed 21 3e d7 b6 e1 3e
       0.09749468 -0.07647476 0.15813193 0.44084808
0000f0 29 3c 03 bf b9 2c 65 bc 73 88 40 be 0f 82 0f 3f
       -0.5126367 -0.0139877135 -0.18802051 0.5605783
000100 da 23 53 bf be 76 4b bf 94 24 a3 bf 7d aa 4c be
       -0.8247658 -0.7947806 -1.2745538 -0.19986911
000110 08 57 e7 3d 4c f0 ea be 1d ef 91 bf ed d7 e9 bb
       0.11295897 -0.45886457 -1.1401097 -0.007136336
000120 5b c2 85 bf 4c 41 0f bf 83 a0 98 bf d9 d7 0e be
       -1.0449938 -0.5595901 -1.1923984 -0.13949527
000130 cb 3a 45 3c 57 e3 22 be 5b 21 5c bf 23 30 5d bf
       0.012037943 -0.15907036 -0.85988396 -0.86401576
000140 92 a3 04 bf 98 f5 93 3d a0 09 3c 3e 7b a8 18 3e
       -0.5181209 0.07224578 0.18363047 0.1490802
000150 77 c5 25 3d 20 37 ee 3e 94 23 52 bd 6e 92 fe 3d
       0.04047152 0.46526432 -0.05130346 0.12430273
000160 f9 fa 4a 3e ab 30 22 3e e0 1d 0f 3f 58 83 26 bf
       0.19822301 0.15838878 0.5590496 -0.65044165
000170 22 49 bb bd 67 51 1e bf 99 ca 6a bf 61 cc 28 bf
       -0.09144808 -0.6184296 -0.9171539 -0.6593686
000180 52 5c 5e bf d9 27 e6 be 10 5a cb be 96 1d 02 bf
       -0.8685962 -0.44952276 -0.3971715 -0.50826395
000190 5f 43 ed be dd d4 04 bf d2 3d 16 3f b7 c2 a8 3f
       -0.46340463 -0.51887304 0.5868808 1.3184422
0001a0 09 5a 21 be a1 b0 be bd aa 24 49 3f 97 f5 8f bf
       -0.15757002 -0.09311033 0.7857157 -1.1246823
0001b0 31 9e 30 3f a9 c8 b7 3d 77 9c 3a bf 08 d6 9a bf
       0.6899138 0.0897382 -0.72894996 -1.2096567
0001c0 48 db 61 bb 03 f9 05 bf 2f bc be 3e 35 e5 ab bf
       -0.0034462977 -0.52333087 0.37252948 -1.3429323
0001d0 f6 f8 7c be e7 d4 3e 3f 31 52 9f be 2f 84 37 bf
       -0.24704346 0.74543613 -0.31117395 -0.7168607
0001e0 a5 0a b5 3e 5d 2d 00 bc 0c 1f 1e 3e 2e 3f 38 bf
       0.35359684 -0.007823315 0.15441531 -0.71971405
0001f0 8e 27 bb 3c d9 ab b6 3e cf 40 ef 3d 54 1f 4c 3f
       0.02284601 0.35677984 0.11682283 0.797353
000200 8c ce 49 3f 5f d3 04 bf d8 6e 60 bf 2b bc ef 3d
       0.7883079 -0.51885027 -0.87669134 0.11705812
000210 67 9a 42 be 4c 82 44 3d 54 4b a1 3e 10 98 05 be
       -0.19004212 0.047975823 0.31502783 -0.13046288
000220 62 6c c7 3e 63 46 0e bf 7e 69 22 bf e0 3a 12 3d
       0.38949877 -0.5557615 -0.6344222 0.03570068
000230 bb 2d a4 3f 4f a1 71 bd 52 b2 35 3e 98 c7 6f 3f
       1.2826456 -0.058991726 0.17743805 0.9366393
000240 e6 e0 f9 bb f7 dd 56 3e 28 c8 6a bf e5 ac b6 bd
       -0.007625687 0.2098311 -0.91711664 -0.08919696
000250 28 13 1c 3f d0 48 f5 be 22 6d 44 3f bc 46 f4 be
       0.6096673 -0.47907114 0.76729023 -0.47710216
000260 6f 41 8c 3e a4 e4 14 3f ce 7a 2a 3d 8b 35 1d 3e
       0.27393672 0.5816138 0.041621022 0.15352456
000270 57 c3 3c 3f 5c 3a b2 be 9c dc a7 bf 6c 40 ad be
       0.73735565 -0.3481015 -1.31142 -0.33838212
000280 22 9d 36 bd 41 b4 46 3d 06 44 24 bf e7 bb 79 3e
       -0.044583447 0.048511747 -0.64166296 0.24388085
000290 85 37 5b 3e 61 5e 50 3e ad 34 17 bf 9a ec 95 bd
       0.21407898 0.20348503 -0.5906475 -0.07320519
0002a0 96 37 18 3f e4 fa 44 bd 93 ed a9 3f cc 7e 42 3f
       0.5945982 -0.04809083 1.3275627 0.75974727
0002b0 1e e6 3d bf 34 30 e3 be 47 47 f5 be 6c 5a 82 3f
       -0.74179256 -0.44372714 -0.47905943 1.0183845
0002c0 84 b1 74 3f bd e3 f4 bf 06 72 7d be 87 62 22 bd
       0.9558337 -1.9132 -0.24750528 -0.039644744
0002d0 cf 98 7c 3e 8f 55 9f be 5f da cd 3e 41 aa fb 3e
       0.24667667 -0.31119964 0.40205666 0.4915333
0002e0 26 0a 15 bf 9b c0 57 be 72 ad ed 3e c7 0b 19 be
       -0.5821861 -0.21069567 0.4642139 -0.14945899
0002f0 5b 49 20 3f 2b 1b 2c be 9c fb 99 bd 94 4a 1b be
       0.6261193 -0.16807239 -0.07518694 -0.15165168
000300 6c 77 85 3d e0 00 59 bf a7 c9 8b bf 02 ee d3 3d
       0.065169185 -0.8476696 -1.0920914 0.10348131
000310 92 15 cc 3e 0f 13 b2 be 36 d9 fd 3e 14 b9 90 be
       0.39860207 -0.34780166 0.4957978 -0.28266203
000320 a3 38 c6 3e dc 2b 86 3e 64 01 97 3f 46 9e e9 bd
       0.38715085 0.26205337 1.1797299 -0.114071414
000330 7f 28 f3 bd 53 fe 40 3e 70 cb fb be ea 80 0d bf
       -0.118729584 0.18847017 -0.49178648 -0.5527483
000340 4d 48 7d bb 5d 5b 56 bf b3 a5 be bd 7e c4 81 3e
       -0.003864783 -0.8373316 -0.09308948 0.25345224
000350 e3 cf 10 bf e3 34 90 3f da f2 fe 3e f8 09 ec be
       -0.5656721 1.126614 0.49794656 -0.46101356
000360 41 a2 c8 3e 6a 39 b3 3e 01 a6 73 3f 69 2c 4b 3f
       0.3918629 0.3500474 0.95175177 0.7936464
000370 f7 6d 90 be 86 b3 6d bf 59 51 68 bf 07 d5 87 bd
       -0.28208897 -0.92852056 -0.90749127 -0.066324286
000380 76 3d 44 3e d3 84 b1 3e c1 37 e7 be c8 27 ab be
       0.1916407 0.3467165 -0.45159724 -0.33428788
000390 b8 d1 cf 3e 21 58 85 3f fa d9 93 bf 13 b1 81 3f
       0.4058969 1.041752 -1.1550896 1.0132164
0003a0 11 ad d5 be 61 0b 04 bf f2 94 3e bf 0a 98 e7 3e
       -0.41733602 -0.5157986 -0.7444602 0.45233184
0003b0 3d b2 60 bf a7 3f 55 3f 27 0d 46 be 53 24 b0 3d
       -0.8777197 0.8330025 -0.19340955 0.08600678
0003c0 81 77 2b bf c2 8c a4 3e d1 65 14 3f 76 0f 72 3f
       -0.66979223 0.3213864 0.5796786 0.9455484
0003d0 12 f0 bd be 03 2d 85 3e c9 fe 10 bf 72 ce 80 bf
       -0.37097222 0.26010904 -0.5663877 -1.0063002
0003e0 11 7c d7 3e ac d6 83 3e 7b ee f9 be 8d 0e 37 3f
       0.42086843 0.2574972 -0.4881476 0.7150658
0003f0 97 4b d2 3e eb 78 e0 be 1d 43 52 bf fb 9c 2a bf
       0.41073295 -0.43842253 -0.82133657 -0.66645783
