HW3/EX1/notebook/cnn.tflite (tflite, 9200 bytes, 7 tensors)

unknown_0 f4 [32]
0.19660324 0.0 0.0 0.0 0.20654504 -0.18739922 -0.011032726 -0.004196381
0.0 0.22593628 -0.06820389 -0.060380597 -0.016523255 0.0015205601 -0.30270454 0.087664776
0.04160777 0.0 0.38290823 1.0018479 -0.039863016 0.31518322 -0.6070067 -0.2019192
-0.03643118 -0.031746436 -0.031641666 0.0 -0.20518057 -0.059914704 -0.01636256 -0.010959252
00000000: 5c52 493e 0000 0000 0000 0000 0000 0000
00000010: 8b80 533e 95e5 3fbe 9bc2 34bc cc81 89bb
00000020: 0000 0000 d75b 673e 7bae 8bbd a551 77bd
00000030: c75b 87bc 884d c73a 17fc 9abe 9789 b33d
00000040: e96c 2a3d 0000 0000 8c0c c43e 8d3c 803f
00000050: 6747 23bd b25f a13e cb64 1bbf e8c3 4ebe
00000060: dc38 15bd 8d08 02bd b19a 01bd 0000 0000
00000070: db1a 52be 1f69 75bd c70a 86bc 6f8e 33bc

unknown_2 f4 [32]
0.054296702 0.03535978 -0.021008495 -0.013030563 -0.08116299 0.008908368 -0.031749725 0.032911107
0.23378563 -0.031676907 -0.031740446 -0.062118594 -0.063479975 -0.05535166 -0.038963817 -0.023090063
-0.075451165 -0.031743716 0.082941316 -0.031659205 0.019981679 -0.0093303025 -0.047845583 -0.021746758
-0.030082803 0.12612842 -0.02108296 0.23404582 -0.016604118 -0.03812272 0.24935523 -0.059653766
00000000: 3866 5e3d 6bd5 103d 021a acbc 247e 55bc
00000010: c838 a6bd 67f4 113c 000c 02bd cccd 063d
00000020: 8065 6f3e a5bf 01bd 4502 02bd 1170 7ebd
00000030: ca01 82bd 6cb8 62bd 8698 1fbd 5f27 bdbc
00000040: 2486 9abd b305 02bd 23dd a93d 15ad 01bd
00000050: 9eb0 a33c 20de 18bc bbf9 43bd 4226 b2bc
00000060: 3670 f6bc cf27 013e 2cb6 acbc b5a9 6f3e
00000070: 5c05 88bc 9226 1cbd fa56 7f3e 8257 74bd

unknown_4 f4 [2]
0.052279875 0.29472196
00000000: 6c23 563d cce5 963e

sequential/dense/MatMul;StatefulPartitionedCall/sequential/dense/MatMul i1 [32, 128] scale=0.025638342 zero_point=0
0.0 0.0 0.0 0.0 0.20510674 0.0 0.0 0.20510674
0.0 -0.25638342 0.1794684 0.0 0.0 0.0 0.0 0.0
-0.1794684 0.0 0.25638342 0.0 0.0 0.0 0.0 0.0
0.0 0.0 0.0 0.0 0.0 0.0 0.0 0.0
0.0 0.0 0.0 0.0 0.0 -0.1794684 0.1794684 0.0
0.0 0.0 0.0 0.20510674 0.0 0.0 0.15383005 0.0
-0.15383005 0.0 0.25638342 0.0 0.0 0.3076601 0.0 0.0
0.0 -0.1794684 0.0 0.0 0.0 0.0 0.0 0.0
0.0 0.0 0.1794684 0.0 -0.25638342 0.0 0.0 0.0
0.0 0.0 0.25638342 0.0 0.0 0.0 0.0 0.3076601
0.0 0.0 0.0 0.25638342 0.0 0.0 0.15383005 0.0
0.0 0.0 0.0 0.0 0.23074508 -0.1794684 0.0 0.0
0.0 0.0 0.0 0.0 0.1794684 0.0 0.0 0.0
-0.1794684 0.33329844 0.0 0.0 0.0 -0.1794684 0.0 0.6665969
0.33329844 0.0 0.0 -0.1794684 0.0 -0.38457513 0.0 0.0
0.20510674 0.0 0.0 0.0 0.0 0.0 0.0 0.0
0.0 0.0 0.1794684 0.0 0.0 0.0 0.0 0.0
0.0 0.0 0.0 0.0 0.1794684 0.0 -0.28202176 0.0
0.0 0.0 0.0 0.0 0.0 0.0 0.0 0.0
0.0 0.0 0.15383005 -0.1794684 0.25638342 0.0 0.0 0.0
0.0 0.0 0.0 0.0 0.0 0.0 -0.15383005 0.0
0.0 0.0 0.0 0.0 0.0 0.0 0.0 0.0
0.0 -0.15383005 0.0 0.0 0.0 0.0 0.0 0.0
0.0 -0.1794684 0.0 0.0 0.0 0.1794684 0.0 0.28202176
0.5640435 0.0 0.0 0.0 0.0 0.0 0.0 -3.2560694
-0.1794684 0.0 0.0 0.46149015 0.20510674 0.0 0.20510674 0.15383005
0.0 0.0 0.0 0.0 0.0 0.0 0.0 0.0
0.0 -0.1794684 0.0 0.0 0.0 0.0 0.1794684 0.0
0.0 -0.1794684 0.0 0.0 0.9229803 0.0 0.0 0.5384052
0.0 0.0 0.0 0.0 0.0 0.0 0.0 0.0
0.0 0.0 0.0 0.0 0.0 0.0 0.15383005 0.0
-0.20510674 0.0 0.0 0.0 -0.6665969 0.0 0.20510674 0.0
00000000: 0000 0000 0800 0008 00f6 0700 0000 0000
00000010: f900 0a00 0000 0000 0000 0000 0000 0000
00000020: 0000 0000 00f9 0700 0000 0008 0000 0600
00000030: fa00 0a00 000c 0000 00f9 0000 0000 0000
00000040: 0000 0700 f600 0000 0000 0a00 0000 000c
00000050: 0000 000a 0000 0600 0000 0000 09f9 0000
00000060: 0000 0000 0700 0000 f90d 0000 00f9 001a
00000070: 0d00 00f9 00f1 0000 0800 0000 0000 0000
00000080: 0000 0700 0000 0000 0000 0000 0700 f500
00000090: 0000 0000 0000 0000 0000 06f9 0a00 0000
000000a0: 0000 0000 0000 fa00 0000 0000 0000 0000
000000b0: 00fa 0000 0000 0000 00f9 0000 0007 000b
000000c0: 1600 0000 0000 0081 f900 0012 0800 0806
000000d0: 0000 0000 0000 0000 00f9 0000 0000 0700
000000e0: 00f9 0000 2400 0015 0000 0000 0000 0000
000000f0: 0000 0000 0000 0600 f800 0000 e600 0800

sequential/dense_1/MatMul;StatefulPartitionedCall/sequential/dense_1/MatMul f4 [2, 32]
-0.0 -0.0 -0.0 -0.34891316 0.0 0.43748528 0.39496565 0.0
-0.0 0.0 -0.0 0.36253044 0.0 0.0 -0.0 -0.0
0.0 0.0 -0.0 0.0 0.0 0.0 0.0 0.0
-0.0 -0.0 0.0 -0.0 0.0 0.0 -0.3205189 0.0
0.0 0.0 0.0 -0.39100134 -0.0 -0.54510844 0.0 -0.0
0.592373 0.0 -0.0 -0.3263631 0.0 -0.0 0.0 -0.21125612
0.3102232 0.3416392 0.0 0.0 -0.0 -0.3036395 0.0 -0.0
0.0 0.0 -0.0 0.6086726 0.0 -0.36335835 0.0 0.0
00000000: 0000 0080 0000 0080 0000 0080 bfa4 b2be
00000010: 0000 0000 12fe df3e f038 ca3e 0000 0000
00000020: 0000 0080 0000 0000 0000 0080 979d b93e
00000030: 0000 0000 0000 0000 0000 0080 0000 0080
00000040: 0000 0000 0000 0000 0000 0080 0000 0000
00000050: 0000 0000 0000 0000 0000 0000 0000 0000
00000060: 0000 0080 0000 0080 0000 0000 0000 0080
00000070: 0000 0000 0000 0000 0e1b a4be 0000 0000
00000080: 0000 0000 0000 0000 0000 0000 5431 c8be
00000090: 0000 0080 3a8c 0bbf 0000 0000 0000 0080
000000a0: c2a5 173f 0000 0000 0000 0080 1019 a7be
000000b0: 0000 0000 0000 0080 0000 0000 8653 58be
000000c0: 93d5 9e3e 55eb ae3e 0000 0000 0000 0000
000000d0: 0000 0080 a376 9bbe 0000 0000 0000 0080
000000e0: 0000 0000 0000 0000 0000 0080 f8d1 1b3f
000000f0: 0000 0000 1b0a babe 0000 0000 0000 0000

sequential/conv1d/conv1d;StatefulPartitionedCall/sequential/conv1d/conv1d f4 [32]
0.0 0.0 0.0 0.0 0.0 0.0 0.0 0.0
0.0 0.0 0.0 0.0 0.0 0.0 0.0 0.0
0.0 0.0 0.0 0.0 0.0 0.0 0.0 0.0
0.0 0.0 0.0 0.0 0.0 0.0 0.0 0.0
00000000: 0000 0000 0000 0000 0000 0000 0000 0000
00000010: 0000 0000 0000 0000 0000 0000 0000 0000
00000020: 0000 0000 0000 0000 0000 0000 0000 0000
00000030: 0000 0000 0000 0000 0000 0000 0000 0000
00000040: 0000 0000 0000 0000 0000 0000 0000 0000
00000050: 0000 0000 0000 0000 0000 0000 0000 0000
00000060: 0000 0000 0000 0000 0000 0000 0000 0000
00000070: 0000 0000 0000 0000 0000 0000 0000 0000

sequential/conv1d/conv1d;StatefulPartitionedCall/sequential/conv1d/conv1d1 f4 [32, 1, 3, 2]
-0.4520318 -0.0 0.0 -0.0 0.4402549 -0.0 -0.0 0.0
-0.0 -0.0 -0.0 -0.0 -0.0 -0.0 -0.0 -0.0
-0.0 -0.0 -0.0 -0.0 0.0 0.0 -0.0 0.0
0.0 -0.0 0.0 -0.0 -1.2774491 -0.0 -0.0 -0.0
0.0 -0.0 -0.0 0.0 0.0 -0.0 -0.0 -0.0
-0.0 -0.0 0.38000092 -0.0 -0.0 -0.0 -0.38623682 -0.0
-0.0 -0.0 -0.0 -0.0 0.0 -0.0 0.0 -0.0
0.0 -0.0 -0.80890614 -0.0 -0.27630356 0.0 -0.0 -0.0
0.2630868 -0.32753643 0.0 -0.0 0.41557193 -0.0 0.43729064 -0.0
-0.26576114 -0.0 -0.0 0.0 0.33148146 -0.22430055 0.0 -0.0
0.0 0.0 0.0 -0.23281524 0.0 -0.0 0.0 -0.0
0.0 -0.0 -0.0 0.0 0.33347514 0.0 -0.5164148 0.3987481
-0.0 0.0 -0.0 0.0 -0.0 0.33109492 0.0 -0.0
-0.0 -0.0 0.0 -0.20913284 0.34805086 -0.0 -0.0 -0.0
-0.0 -0.38785574 0.3006398 -0.0 -1.246828 0.0 0.8711459 -0.25430194
-0.0 -0.0 -0.0 -0.0 -0.0 -0.0 -0.0 0.0
-0.25644428 -0.0 0.27243343 -0.32992944 -0.0 -0.0 -0.21433096 -0.0
0.20307834 -0.0 0.0 0.0 0.0 0.0 -0.0 0.0
-0.0 0.0 0.47246015 -0.24443714 0.2616681 0.47847018 -0.0 -0.0
-0.0 -0.20583463 0.0 -0.0 0.0 0.0 0.0 -0.0
0.0 -0.0 -0.0 -0.0 0.0 0.0 -0.0 -0.22873892
0.503041 0.0 -0.7117137 0.0 1.2612957 0.0 0.0 0.0
0.0 0.0 0.0 0.0 -0.0 0.0 -0.0 0.0
-0.2491016 0.28146303 -0.37966898 -0.0 0.0 -0.0 0.53565735 -0.0
00000000: b670 e7be 0000 0080 0000 0000 0000 0080
00000010: 1769 e13e 0000 0080 0000 0080 0000 0000
00000020: 0000 0080 0000 0080 0000 0080 0000 0080
00000030: 0000 0080 0000 0080 0000 0080 0000 0080
00000040: 0000 0080 0000 0080 0000 0080 0000 0080
00000050: 0000 0000 0000 0000 0000 0080 0000 0000
00000060: 0000 0000 0000 0080 0000 0000 0000 0080
00000070: 7483 a3bf 0000 0080 0000 0080 0000 0080
00000080: 0000 0000 0000 0080 0000 0080 0000 0000
00000090: 0000 0000 0000 0080 0000 0080 0000 0080
000000a0: 0000 0080 0000 0080 7b8f c23e 0000 0080
000000b0: 0000 0080 0000 0080 d5c0 c5be 0000 0080
000000c0: 0000 0080 0000 0080 0000 0080 0000 0080
000000d0: 0000 0000 0000 0080 0000 0000 0000 0080
000000e0: 0000 0000 0000 0080 7914 4fbf 0000 0080
000000f0: a977 8dbe 0000 0000 0000 0080 0000 0080
00000100: 50b3 863e dbb2 a7be 0000 0000 0000 0080
00000110: d8c5 d43e 0000 0080 8fe4 df3e 0000 0080
00000120: d811 88be 0000 0080 0000 0080 0000 0000
00000130: f0b7 a93e 0baf 65be 0000 0000 0000 0080
00000140: 0000 0000 0000 0000 0000 0000 1e67 6ebe
00000150: 0000 0000 0000 0080 0000 0000 0000 0080
00000160: 0000 0000 0000 0080 0000 0080 0000 0000
00000170: 41bd aa3e 0000 0000 c333 04bf b628 cc3e
00000180: 0000 0080 0000 0000 0000 0080 0000 0000
00000190: 0000 0080 4685 a93e 0000 0000 0000 0080
000001a0: 0000 0080 0000 0080 0000 0000 eb26 56be
000001b0: b933 b23e 0000 0080 0000 0080 0000 0080
000001c0: 0000 0080 0795 c6be 76ed 993e 0000 0080
000001d0: 0f98 9fbf 0000 0000 6b03 5f3f dd33 82be
000001e0: 0000 0080 0000 0080 0000 0080 0000 0080
000001f0: 0000 0080 0000 0080 0000 0080 0000 0000
00000200: aa4c 83be 0000 0080 657c 8b3e 83ec a8be
00000210: 0000 0080 0000 0080 9379 5bbe 0000 0080
00000220: c5f3 4f3e 0000 0080 0000 0000 0000 0000
00000230: 0000 0000 0000 0000 0000 0080 0000 0000
00000240: 0000 0080 0000 0000 4ce6 f13e bb4d 7abe
00000250: 5cf9 853e 0bfa f43e 0000 0080 0000 0080
00000260: 0000 0080 50c6 52be 0000 0000 0000 0080
00000270: 0000 0000 0000 0000 0000 0000 0000 0080
00000280: 0000 0000 0000 0080 0000 0080 0000 0080
00000290: 0000 0000 0000 0000 0000 0080 893a 6abe
000002a0: 4cc7 003f 0000 0000 de32 36bf 0000 0000
000002b0: 2372 a13f 0000 0000 0000 0000 0000 0000
000002c0: 0000 0000 0000 0000 0000 0000 0000 0000
000002d0: 0000 0080 0000 0000 0000 0080 0000 0000
000002e0: 7d14 7fbe ec1b 903e f963 c2be 0000 0080
000002f0: 0000 0000 0000 0080 d720 093f 0000 0080
